__________________________________________________________________________________________________
Layer (type)                    Output Shape         Param #     Connected to                     
==================================================================================================
input_2 (InputLayer)            (None, 150, 50)      0                                            
__________________________________________________________________________________________________
input_1 (InputLayer)            (None, 150)          0                                            
__________________________________________________________________________________________________
time_distributed_1 (TimeDistrib (None, 150, 50, 50)  4250        input_2[0][0]                    
__________________________________________________________________________________________________
embedding_1 (Embedding)         (None, 150, 300)     2995500     input_1[0][0]                    
__________________________________________________________________________________________________
time_distributed_2 (TimeDistrib (None, 150, 50)      15200       time_distributed_1[0][0]         
__________________________________________________________________________________________________
concatenate_1 (Concatenate)     (None, 150, 350)     0           embedding_1[0][0]                
                                                                 time_distributed_2[0][0]         
__________________________________________________________________________________________________
spatial_dropout1d_1 (SpatialDro (None, 150, 350)     0           concatenate_1[0][0]              
__________________________________________________________________________________________________
bidirectional_2 (Bidirectional) (None, 150, 200)     360800      spatial_dropout1d_1[0][0]        
__________________________________________________________________________________________________
crf_1 (CRF)                     (None, 150, 10)      2130        bidirectional_2[0][0]            
==================================================================================================
Total params: 3,377,880
Trainable params: 3,377,880
Non-trainable params: 0
__________________________________________________________________________________________________
