__________________________________________________________________________________________________
Layer (type)                    Output Shape         Param #     Connected to                     
==================================================================================================
input_3 (InputLayer)            (None, 150)          0                                            
__________________________________________________________________________________________________
input_4 (InputLayer)            (None, 150)          0                                            
__________________________________________________________________________________________________
input_2 (InputLayer)            (None, 150)          0                                            
__________________________________________________________________________________________________
embedding_3 (Embedding)         (None, 150, 200)     1341200     input_3[0][0]                    
__________________________________________________________________________________________________
embedding_4 (Embedding)         (None, 150, 200)     656200      input_4[0][0]                    
__________________________________________________________________________________________________
input_5 (InputLayer)            (None, 150, 50)      0                                            
__________________________________________________________________________________________________
embedding_2 (Embedding)         (None, 150, 200)     1997000     input_2[0][0]                    
__________________________________________________________________________________________________
concatenate_1 (Concatenate)     (None, 150, 400)     0           embedding_3[0][0]                
                                                                 embedding_4[0][0]                
__________________________________________________________________________________________________
input_1 (InputLayer)            (None, 150)          0                                            
__________________________________________________________________________________________________
time_distributed_1 (TimeDistrib (None, 150, 50, 25)  1150        input_5[0][0]                    
__________________________________________________________________________________________________
concatenate_2 (Concatenate)     (None, 150, 600)     0           embedding_2[0][0]                
                                                                 concatenate_1[0][0]              
__________________________________________________________________________________________________
embedding_1 (Embedding)         (None, 150, 200)     9000        input_1[0][0]                    
__________________________________________________________________________________________________
time_distributed_2 (TimeDistrib (None, 150, 50)      10200       time_distributed_1[0][0]         
__________________________________________________________________________________________________
concatenate_3 (Concatenate)     (None, 150, 850)     0           concatenate_2[0][0]              
                                                                 embedding_1[0][0]                
                                                                 time_distributed_2[0][0]         
__________________________________________________________________________________________________
dropout_1 (Dropout)             (None, 150, 850)     0           concatenate_3[0][0]              
__________________________________________________________________________________________________
bidirectional_2 (Bidirectional) (None, 150, 200)     760800      dropout_1[0][0]                  
__________________________________________________________________________________________________
time_distributed_3 (TimeDistrib (None, 150, 50)      10050       bidirectional_2[0][0]            
__________________________________________________________________________________________________
crf_1 (CRF)                     (None, 150, 10)      630         time_distributed_3[0][0]         
==================================================================================================
Total params: 4,786,230
Trainable params: 2,789,230
Non-trainable params: 1,997,000
__________________________________________________________________________________________________
