__________________________________________________________________________________________________
Layer (type)                    Output Shape         Param #     Connected to                     
==================================================================================================
input_2 (InputLayer)            (None, 150, 50)      0                                            
__________________________________________________________________________________________________
input_1 (InputLayer)            (None, 150)          0                                            
__________________________________________________________________________________________________
time_distributed_1 (TimeDistrib (None, 150, 50, 50)  4250        input_2[0][0]                    
__________________________________________________________________________________________________
embedding_1 (Embedding)         (None, 150, 300)     2995500     input_1[0][0]                    
__________________________________________________________________________________________________
time_distributed_2 (TimeDistrib (None, 150, 25)      7600        time_distributed_1[0][0]         
__________________________________________________________________________________________________
concatenate_1 (Concatenate)     (None, 150, 325)     0           embedding_1[0][0]                
                                                                 time_distributed_2[0][0]         
__________________________________________________________________________________________________
spatial_dropout1d_1 (SpatialDro (None, 150, 325)     0           concatenate_1[0][0]              
__________________________________________________________________________________________________
bidirectional_1 (Bidirectional) (None, 150, 200)     340800      spatial_dropout1d_1[0][0]        
__________________________________________________________________________________________________
crf_1 (CRF)                     (None, 150, 10)      2130        bidirectional_1[0][0]            
==================================================================================================
Total params: 3,350,280
Trainable params: 3,350,280
Non-trainable params: 0
__________________________________________________________________________________________________
